Model: "functional"
┏━━━━━━━━━━━━━━━━━━━━━━━━━━━━━━━┳━━━━━━━━━━━━━━━━━━━━━━━━━━━┳━━━━━━━━━━━━━━━━━┳━━━━━━━━━━━━━━━━━━━━━━━━━━━━┓
┃ Layer (type)                  ┃ Output Shape              ┃         Param # ┃ Connected to               ┃
┡━━━━━━━━━━━━━━━━━━━━━━━━━━━━━━━╇━━━━━━━━━━━━━━━━━━━━━━━━━━━╇━━━━━━━━━━━━━━━━━╇━━━━━━━━━━━━━━━━━━━━━━━━━━━━┩
│ input_layer (InputLayer)      │ (None, 256, 256, 3)       │               0 │ -                          │
├───────────────────────────────┼───────────────────────────┼─────────────────┼────────────────────────────┤
│ conv2d (Conv2D)               │ (None, 256, 256, 32)      │             896 │ input_layer[0][0]          │
├───────────────────────────────┼───────────────────────────┼─────────────────┼────────────────────────────┤
│ conv2d_1 (Conv2D)             │ (None, 256, 256, 32)      │           9,248 │ conv2d[0][0]               │
├───────────────────────────────┼───────────────────────────┼─────────────────┼────────────────────────────┤
│ max_pooling2d (MaxPooling2D)  │ (None, 128, 128, 32)      │               0 │ conv2d_1[0][0]             │
├───────────────────────────────┼───────────────────────────┼─────────────────┼────────────────────────────┤
│ conv2d_2 (Conv2D)             │ (None, 128, 128, 64)      │          18,496 │ max_pooling2d[0][0]        │
├───────────────────────────────┼───────────────────────────┼─────────────────┼────────────────────────────┤
│ conv2d_3 (Conv2D)             │ (None, 128, 128, 64)      │          36,928 │ conv2d_2[0][0]             │
├───────────────────────────────┼───────────────────────────┼─────────────────┼────────────────────────────┤
│ max_pooling2d_1               │ (None, 64, 64, 64)        │               0 │ conv2d_3[0][0]             │
│ (MaxPooling2D)                │                           │                 │                            │
├───────────────────────────────┼───────────────────────────┼─────────────────┼────────────────────────────┤
│ conv2d_4 (Conv2D)             │ (None, 64, 64, 128)       │          73,856 │ max_pooling2d_1[0][0]      │
├───────────────────────────────┼───────────────────────────┼─────────────────┼────────────────────────────┤
│ conv2d_5 (Conv2D)             │ (None, 64, 64, 128)       │         147,584 │ conv2d_4[0][0]             │
├───────────────────────────────┼───────────────────────────┼─────────────────┼────────────────────────────┤
│ max_pooling2d_2               │ (None, 32, 32, 128)       │               0 │ conv2d_5[0][0]             │
│ (MaxPooling2D)                │                           │                 │                            │
├───────────────────────────────┼───────────────────────────┼─────────────────┼────────────────────────────┤
│ conv2d_6 (Conv2D)             │ (None, 32, 32, 256)       │         295,168 │ max_pooling2d_2[0][0]      │
├───────────────────────────────┼───────────────────────────┼─────────────────┼────────────────────────────┤
│ conv2d_7 (Conv2D)             │ (None, 32, 32, 256)       │         590,080 │ conv2d_6[0][0]             │
├───────────────────────────────┼───────────────────────────┼─────────────────┼────────────────────────────┤
│ dropout (Dropout)             │ (None, 32, 32, 256)       │               0 │ conv2d_7[0][0]             │
├───────────────────────────────┼───────────────────────────┼─────────────────┼────────────────────────────┤
│ max_pooling2d_3               │ (None, 16, 16, 256)       │               0 │ dropout[0][0]              │
│ (MaxPooling2D)                │                           │                 │                            │
├───────────────────────────────┼───────────────────────────┼─────────────────┼────────────────────────────┤
│ conv2d_8 (Conv2D)             │ (None, 16, 16, 512)       │       1,180,160 │ max_pooling2d_3[0][0]      │
├───────────────────────────────┼───────────────────────────┼─────────────────┼────────────────────────────┤
│ conv2d_9 (Conv2D)             │ (None, 16, 16, 512)       │       2,359,808 │ conv2d_8[0][0]             │
├───────────────────────────────┼───────────────────────────┼─────────────────┼────────────────────────────┤
│ dropout_1 (Dropout)           │ (None, 16, 16, 512)       │               0 │ conv2d_9[0][0]             │
├───────────────────────────────┼───────────────────────────┼─────────────────┼────────────────────────────┤
│ conv2d_transpose              │ (None, 32, 32, 256)       │       1,179,904 │ dropout_1[0][0]            │
│ (Conv2DTranspose)             │                           │                 │                            │
├───────────────────────────────┼───────────────────────────┼─────────────────┼────────────────────────────┤
│ concatenate (Concatenate)     │ (None, 32, 32, 512)       │               0 │ conv2d_transpose[0][0],    │
│                               │                           │                 │ dropout[0][0]              │
├───────────────────────────────┼───────────────────────────┼─────────────────┼────────────────────────────┤
│ conv2d_10 (Conv2D)            │ (None, 32, 32, 256)       │       1,179,904 │ concatenate[0][0]          │
├───────────────────────────────┼───────────────────────────┼─────────────────┼────────────────────────────┤
│ conv2d_11 (Conv2D)            │ (None, 32, 32, 256)       │         590,080 │ conv2d_10[0][0]            │
├───────────────────────────────┼───────────────────────────┼─────────────────┼────────────────────────────┤
│ conv2d_transpose_1            │ (None, 64, 64, 128)       │         295,040 │ conv2d_11[0][0]            │
│ (Conv2DTranspose)             │                           │                 │                            │
├───────────────────────────────┼───────────────────────────┼─────────────────┼────────────────────────────┤
│ concatenate_1 (Concatenate)   │ (None, 64, 64, 256)       │               0 │ conv2d_transpose_1[0][0],  │
│                               │                           │                 │ conv2d_5[0][0]             │
├───────────────────────────────┼───────────────────────────┼─────────────────┼────────────────────────────┤
│ conv2d_12 (Conv2D)            │ (None, 64, 64, 128)       │         295,040 │ concatenate_1[0][0]        │
├───────────────────────────────┼───────────────────────────┼─────────────────┼────────────────────────────┤
│ conv2d_13 (Conv2D)            │ (None, 64, 64, 128)       │         147,584 │ conv2d_12[0][0]            │
├───────────────────────────────┼───────────────────────────┼─────────────────┼────────────────────────────┤
│ conv2d_transpose_2            │ (None, 128, 128, 64)      │          73,792 │ conv2d_13[0][0]            │
│ (Conv2DTranspose)             │                           │                 │                            │
├───────────────────────────────┼───────────────────────────┼─────────────────┼────────────────────────────┤
│ concatenate_2 (Concatenate)   │ (None, 128, 128, 128)     │               0 │ conv2d_transpose_2[0][0],  │
│                               │                           │                 │ conv2d_3[0][0]             │
├───────────────────────────────┼───────────────────────────┼─────────────────┼────────────────────────────┤
│ conv2d_14 (Conv2D)            │ (None, 128, 128, 64)      │          73,792 │ concatenate_2[0][0]        │
├───────────────────────────────┼───────────────────────────┼─────────────────┼────────────────────────────┤
│ conv2d_15 (Conv2D)            │ (None, 128, 128, 64)      │          36,928 │ conv2d_14[0][0]            │
├───────────────────────────────┼───────────────────────────┼─────────────────┼────────────────────────────┤
│ conv2d_transpose_3            │ (None, 256, 256, 32)      │          18,464 │ conv2d_15[0][0]            │
│ (Conv2DTranspose)             │                           │                 │                            │
├───────────────────────────────┼───────────────────────────┼─────────────────┼────────────────────────────┤
│ concatenate_3 (Concatenate)   │ (None, 256, 256, 64)      │               0 │ conv2d_transpose_3[0][0],  │
│                               │                           │                 │ conv2d_1[0][0]             │
├───────────────────────────────┼───────────────────────────┼─────────────────┼────────────────────────────┤
│ conv2d_16 (Conv2D)            │ (None, 256, 256, 32)      │          18,464 │ concatenate_3[0][0]        │
├───────────────────────────────┼───────────────────────────┼─────────────────┼────────────────────────────┤
│ conv2d_17 (Conv2D)            │ (None, 256, 256, 32)      │           9,248 │ conv2d_16[0][0]            │
├───────────────────────────────┼───────────────────────────┼─────────────────┼────────────────────────────┤
│ conv2d_18 (Conv2D)            │ (None, 256, 256, 32)      │           9,248 │ conv2d_17[0][0]            │
├───────────────────────────────┼───────────────────────────┼─────────────────┼────────────────────────────┤
│ conv2d_19 (Conv2D)            │ (None, 256, 256, 1)       │              33 │ conv2d_18[0][0]            │
└───────────────────────────────┴───────────────────────────┴─────────────────┴────────────────────────────┘
 Total params: 8,639,745 (32.96 MB)
 Trainable params: 8,639,745 (32.96 MB)
 Non-trainable params: 0 (0.00 B)
Epoch 1/50
2025-02-07 13:48:40.297763: I tensorflow/core/grappler/optimizers/custom_graph_optimizer_registry.cc:117] Plugin optimizer for device_type GPU is enabled.
…
